param/rl_net_1765358049.pth (torch, 10329 bytes, 8 tensors)

fc.0.weight f4 [16, 63]
0	0x3e145d60	0.14488745
1	0x3ef5ad1b	0.47983631
2	0xbe09c6f8	-0.13454807
3	0x3d3d0af0	0.04615301
4	0xba8ef51e	-0.0010906791
5	0xb98d0382	-0.0002689623
6	0xba62a498	-0.0008645742
7	0x3b13c1e2	0.0022545983
8	0xbc79f4e5	-0.015256141
9	0x3c27207d	0.010200617
10	0xba88444b	-0.001039633
11	0x3bd9df33	0.006648922
12	0xbbcc2515	-0.0062300065
13	0xb90b8ae0	-0.00013307808
14	0x3bed7e92	0.0072477544
15	0xbbb386a0	-0.005478695
16	0xbc0c1b75	-0.008551468
17	0xbba24293	-0.004951784
18	0xbb832be5	-0.0040030354
19	0xbbf8fa97	-0.007598232
20	0xbca8feef	-0.020629374
21	0xb99eeb1b	-0.00030311276
22	0x3d3dbe97	0.04632434
23	0x3db9cfb2	0.09072818
24	0x3beec9b4	0.0072872285
25	0xbc086d4d	-0.008326841
26	0x3db53b3e	0.0884919
27	0x3c1529b0	0.009104177
28	0x3cfd2f4d	0.030906344
29	0x3d856713	0.065138005
30	0xbde1fa62	-0.11034085
31	0x3d70ee36	0.058820926
32	0x3d89665a	0.06708975
33	0xbdc9e58e	-0.09858237
34	0x3dc89833	0.09794655
35	0x3daf2676	0.08552258
36	0xbc8156ba	-0.015788425
37	0x3c9d5dc9	0.01920976
38	0xbdcc0362	-0.09961583
39	0x3dad46a4	0.08460739
40	0xbdfb2897	-0.12263601
41	0x3d9f3d3b	0.07775351
42	0xbd7d8dc2	-0.06190277
43	0x3c0d0a31	0.008608387
44	0xbda0166d	-0.078167774
45	0x3d9ad740	0.07560587
46	0xbc96bc99	-0.018400477
47	0xbd45e20b	-0.048311274
48	0xbf3ac163	-0.72951335
49	0xbf516ac8	-0.8180356
50	0xbf406919	-0.75160366
51	0xbf4c1837	-0.7972445
52	0xbf461685	-0.7737811
53	0xbf072b17	-0.52800125
54	0xbf6e98d8	-0.9320197
55	0xbed8a63a	-0.4231432
56	0xbf605d02	-0.8764192
57	0xbeb663eb	-0.35623106
58	0xbe04bacf	-0.12961887
59	0xbf5ca425	-0.86187965
60	0xbf5906c3	-0.8477594
61	0xbf259796	-0.64684427
62	0xbf4a3bac	-0.789973
63	0xbedc23f4	-0.4299618
64	0xbd77c524	-0.060490742
65	0x3f614961	0.8800259
66	0x3e892e31	0.26793054
67	0x3d105493	0.035236906
68	0xbcce744f	-0.025201945
69	0xbe8a68b9	-0.27033022
70	0x3cada644	0.021197446
71	0xbd473c33	-0.048641395
72	0xbb8e3e2b	-0.004340907
73	0xbdb3fb94	-0.08788219
74	0xbc6a4317	-0.014298222
75	0xbbd32d5e	-0.006444617
76	0x3c85df09	0.016341703
77	0xbd5f4f51	-0.054519
78	0x3d0b844c	0.034061715
79	0xbd3e3955	-0.046441395
80	0xbd5b47f4	-0.053535417
81	0x3bd89dc9	0.0066106063
82	0xbcdc5e92	-0.026900563
83	0xbc870c95	-0.016485492
84	0xbd541e5b	-0.05178676
85	0xbdd32fe3	-0.10311868
86	0x3d6f53b2	0.058429427
87	0xbd70ee16	-0.058820806
88	0x3ce36585	0.02775837
89	0x3d0575bc	0.032582983
90	0x3dcdfe11	0.10058225
91	0x3db2d3e2	0.0873182
92	0x3d32e47d	0.043674935
93	0x3de47bce	0.11156426
94	0xbccdf95a	-0.025143314
95	0xbdc63d07	-0.09679609
96	0x3d2e933a	0.042620875
97	0x3d0c99cf	0.03432637
98	0x3d874292	0.06604494
99	0xbce36e87	-0.027762664
100	0x3df6359b	0.12021943
101	0xbdecb1d5	-0.11557356
102	0xbdb1d36d	-0.086829044
103	0xbd8ebe7d	-0.069699265
104	0x3d863b67	0.06554299
105	0x3da0ce6b	0.07851871
106	0x3c947238	0.01812087
107	0xbcbc8b9b	-0.023015788
108	0x3cacd8c6	0.02109946
109	0x3ae35c02	0.0017346146
110	0x3d3986d3	0.045294594
111	0x3e8a1cc4	0.2697507
112	0x3e6015fc	0.21883386
113	0x3e326a67	0.17423402
114	0x3ef3c388	0.47610116
115	0x3e7e6077	0.24841486
116	0xba285f2c	-0.0006422873
117	0xbdbbfe6c	-0.091793865
118	0xbdbddfff	-0.092712395
119	0xbb4ac22e	-0.0030938494
120	0x3d82f800	0.063949585
121	0x3be30ffd	0.006929396
122	0xbe00f032	-0.12591627
123	0xbe179d13	-0.14806013
124	0xbdcca599	-0.09992523
125	0xbdc124d7	-0.09430855
126	0x3e9181a8	0.28419232
127	0x3e3baae3	0.18326907
128	0x408678d6	4.2022505
129	0x3e879a6c	0.26485002
130	0x3d84aa0c	0.06477746
131	0xbde4ec05	-0.1117783
132	0x3cb31a70	0.021863192
133	0xbd296e18	-0.04136476
134	0x3c252c2e	0.010081334
135	0xbd3d5ae2	-0.04622925
136	0x3cd884e6	0.026430558
137	0xbcb4d37c	-0.0220735
138	0x3ce25dad	0.027632559
139	0x3c34602f	0.01100926
140	0x39b12291	0.00033785825
141	0x3c16569f	0.0091759255
142	0x3c2ce1d5	0.010551889
143	0x3c397f1a	0.011321807
144	0x3c06e441	0.008233131
145	0x3caf4775	0.021396378
146	0x3dcaa610	0.09894955
147	0x3d528961	0.051400546
148	0xbc0f38b2	-0.008741545
149	0xbdd5aaa8	-0.10432941
150	0x3d2e2b49	0.04252175
151	0xbd1502ce	-0.036379628
152	0x3d7bd0a1	0.06147826
153	0x3daf99ad	0.08574233
154	0xbdb55030	-0.08853185
155	0x3c9eea75	0.019398907
156	0x3d8a8c92	0.06765093
157	0x3daeb712	0.08531012
158	0xbdc064db	-0.09394237
159	0x3d84bda5	0.06481484
160	0xbd054cd6	-0.03254398
161	0xbd1cfc59	-0.038326595
162	0xbdb993a9	-0.09061367
163	0x3df449fe	0.119281754
164	0xbd073aa6	-0.033014916
165	0x3da2358e	0.07920371
166	0xba48f47e	-0.00076658267
167	0xbc8aaf46	-0.01692928
168	0x3d2cab5f	0.04215562
169	0xbd53c361	-0.0517
170	0x3db2f315	0.087377705
171	0x3b1de8d0	0.0024095066
172	0x3de6212c	0.11236796
173	0x3daabea3	0.08337142
174	0x3d0619c2	0.03273941
175	0x3d315150	0.043290436
176	0x3cf89173	0.030342793
177	0x3d1ebcd2	0.03875429
178	0x3c63eeab	0.013911883
179	0x3c847c38	0.016172513
180	0x3ce16a26	0.027516436
181	0x3ce3ce1f	0.027808247
182	0x3ca7b887	0.020473732
183	0x3c9a7b32	0.018857572
184	0x3d402d73	0.046918344
185	0x3d67795f	0.056512233
186	0x3d6779a1	0.05651248
187	0x3d5ca753	0.05387051
188	0x3d5fa6d9	0.054602478
189	0x3ead9952	0.33906037
190	0xbde60c28	-0.11232787
191	0xbd0c4070	-0.03424114
192	0xbea533b6	-0.32266015
193	0x3dae25a8	0.08503276
194	0x3de10ef3	0.109891795
195	0x3e723a39	0.23655023
196	0x3cfccce3	0.030859416
197	0xbd4885b2	-0.048955627
198	0xbcc9161c	-0.024546675
199	0xbc8e4342	-0.017366055
200	0x3db8fa81	0.09032155
201	0xbd8415c6	-0.064494655
202	0xbccfa64b	-0.02534785
203	0x3cb9dc61	0.022688093
204	0xbd868a9a	-0.06569405
205	0x3a40b3c8	0.0007351008
206	0x3b6c9cd3	0.0036104217
207	0x3d83bb18	0.0643217
208	0xbbae5334	-0.005319977
209	0xbd87ae27	-0.06625014
210	0xbd1fd1a9	-0.039018307
211	0x3d51525e	0.051103942
212	0x3d86aa60	0.06575465
213	0x3dec5cc4	0.11541131
214	0xbd5c4ad5	-0.053782303
215	0x3db0c8f2	0.08632077
216	0xbb906af9	-0.0044072834
217	0x3d2ddcf8	0.04244706
218	0xbd257740	-0.04039693
219	0x3d175482	0.036945827
220	0x3ddc0af7	0.10744279
221	0xbdab3b9c	-0.08360979
222	0xbd9cf66f	-0.07664191
223	0x3d923131	0.07138289
224	0xbdd69f2b	-0.10479578
225	0xbd0ebacd	-0.034846116
226	0x3df1e910	0.11812031
227	0x3dbbd74f	0.09171926
228	0x3ac79843	0.0015227873
229	0xbd103247	-0.0352042
230	0x3d97e0d0	0.074159265
231	0xbc3f5c8b	-0.011679779
232	0x3da56e1e	0.08077644
233	0xbd9d80f3	-0.07690611
234	0xbd1afa59	-0.037836406
235	0xbcc44689	-0.023959415
236	0x3df2e7e9	0.118606396
237	0x3ea6d01a	0.32580644
238	0x3ed3734c	0.41298902
239	0x3e833a63	0.25630483
240	0x3d08e1bc	0.033418402
241	0x3eb297c1	0.34881404
242	0x3c8d1190	0.017220289
243	0x3e1d2683	0.15346722
244	0x3e162291	0.14661624
245	0x3d95de0f	0.07317745
246	0x3cdd3e93	0.027007377
247	0xbcd1c7c1	-0.025607945
248	0x3e182f40	0.14861774
249	0x3e02617b	0.12732498
250	0x3e060aca	0.13090053
251	0x3de4ca39	0.111713834
252	0xbf1539b5	-0.5829118
253	0xbce9666c	-0.028491221
254	0x3d943923	0.072374605
255	0x3f574437	0.8408846

fc.0.bias f4 [16]
0	0x3f0c4aa9	0.5480142
1	0x3f845a72	1.0340102
2	0xbea0685b	-0.31329617
3	0x3f917914	1.1365075
4	0xbf4fc870	-0.8116522
5	0x3f725e71	0.94675356
6	0xbebe2939	-0.37140825
7	0x3da8dbc1	0.0824504
8	0x3e049107	0.12945949
9	0x3f1f9851	0.6234179
10	0x3f696156	0.9116415
11	0x3d70f384	0.058825985
12	0x3e9671af	0.2938361
13	0xbe42595d	-0.18979402
14	0xbe69bd8c	-0.22826213
15	0x3f7eae6c	0.99484897

fc.2.weight f4 [16, 16]
0	0x3fd624cf	1.6729983
1	0x3f80f1ac	1.0073752
2	0xbf406898	-0.751596
3	0x3ea69a47	0.3253958
4	0x3fd54cc8	1.6664057
5	0x3f0fb298	0.5613189
6	0x3f7b4ff8	0.981689
7	0x3f39bb8c	0.725518
8	0x3e627977	0.22116648
9	0x3e6f4d66	0.23369369
10	0x3f42124e	0.7580918
11	0xbc550219	-0.013000988
12	0x3fbcf652	1.4762671
13	0xbf04f59f	-0.5193729
14	0x3f30ab87	0.6901173
15	0x3f3bbb5e	0.73332775
16	0x3f069e94	0.5258572
17	0xbe0bb305	-0.1364251
18	0x3d92b16f	0.07162749
19	0xbd8ab3ef	-0.06772601
20	0x3fb16fb3	1.3862213
21	0xbe9f59c9	-0.31123188
22	0x3fa1098c	1.2581038
23	0xbdc973f0	-0.098365664
24	0x3d8ccf3f	0.068754666
25	0xbeaae203	-0.33375558
26	0x3e3fdbcb	0.18736188
27	0x3f20855a	0.6270348
28	0x3fabb7d7	1.3415478
29	0xbea07223	-0.3133708
30	0x3f06796e	0.52529037
31	0x3e20f957	0.15720116
32	0x3db78421	0.089607485
33	0x3e11d165	0.14240034
34	0xc03c7cee	-2.945125
35	0xbf72e7e5	-0.9488509
36	0xbef51c50	-0.47873163
37	0x3ec59dad	0.3859686
38	0xbe97664b	-0.2957023
39	0x3ef126d5	0.4709994
40	0xc02dc41c	-2.7150946
41	0xbff9099e	-1.945606
42	0x3e158deb	0.14604919
43	0x3df1b4b7	0.11802047
44	0xbe09f8af	-0.13473772
45	0xc038cf09	-2.8876364
46	0x3e1fa487	0.15590106
47	0xbe048d24	-0.12944466
48	0x3d26ea93	0.04075105
49	0x3e99bd76	0.3002736
50	0xbf2b3cd4	-0.6688969
51	0xbe0681f8	-0.13135517
52	0xbffd581b	-1.9792513
53	0xbead202c	-0.33813608
54	0xbff9f269	-1.9527103
55	0x3ec602a9	0.38673905
56	0x3dde7d03	0.10863688
57	0x3e860023	0.2617198
58	0x3ef55378	0.47915244
59	0xbf2e98c0	-0.6820183
60	0x3f9a8274	1.2071061
61	0xbffef773	-1.9919266
62	0xbf726780	-0.9468918
63	0xbec881d1	-0.39161542
64	0x3e78c7a2	0.24294904
65	0x3df11016	0.11770646
66	0xc089ea46	-4.309848
67	0xbe178869	-0.1479813
68	0x3f15fc0b	0.5858771
69	0x3e88d255	0.2672297
70	0x3d9562e3	0.07294252
71	0x3f8041a7	1.0020036
72	0xbc1c061d	-0.009522942
73	0x3e15e9b5	0.14639933
74	0x3de9108a	0.11380108
75	0xbdbdaa2a	-0.09260972
76	0x3f2ef551	0.68343073
77	0xbece1304	-0.40248883
78	0x3e06be0d	0.13158436
79	0xbcfae2cc	-0.030625723
80	0x3f9f2e4f	1.2436007
81	0x3f37468b	0.71592015
82	0xbe404d0d	-0.18779393
83	0x3eba742f	0.36416766
84	0xbee04cee	-0.43808693
85	0x3eb99cb5	0.3625237
86	0x3f1e03e1	0.6172467
87	0x3f718033	0.9433624
88	0x3f2d59a0	0.6771488
89	0x3e96d2af	0.29457614
90	0x3f3a23b3	0.7271072
91	0x3db8b1ae	0.09018265
92	0x3f3f6d4c	0.7477615
93	0xbee8f5b4	-0.45499957
94	0xbfdf7a71	-1.7459241
95	0x3df82749	0.12116868
96	0x3ed8b0d7	0.42322418
97	0x3f5caed6	0.8620428
98	0x3edfcb3c	0.43709743
99	0x3f222177	0.63332313
100	0x3f98fade	1.1951559
101	0xbccca9e3	-0.024983352
102	0x3e953249	0.29139927
103	0xbec1511c	-0.37757194
104	0x3eba1614	0.3634497
105	0x3e17214a	0.14758793
106	0x3ed73b7d	0.42037573
107	0xbea88bab	-0.32919058
108	0x3f071e86	0.5278095
109	0xbe158a10	-0.14603448
110	0x3f757943	0.95888156
111	0x3e37e190	0.17957139
112	0x3e8b0e51	0.2715936
113	0x3d82c742	0.06385662
114	0xc04c3263	-3.1905754
115	0xbf84f9ed	-1.0388771
116	0xbf398bd1	-0.7247897
117	0x3e8ad800	0.2711792
118	0x3d878bc7	0.06618457
119	0x3f32da1d	0.69864064
120	0xc0438e9f	-3.05558
121	0xc00e5746	-2.2240767
122	0x3e346783	0.17617612
123	0x3ebde459	0.37088278
124	0xbd14cb8e	-0.036326937
125	0xc05aeb00	-3.4205933
126	0x3eb3d045	0.35119835
127	0xbd9b1a9a	-0.07573433
128	0x3f1c8384	0.61138177
129	0x3f05a7d0	0.52209187
130	0xbcc1a9fa	-0.023640621
131	0xba6772f2	-0.0008829079
132	0x3f0d4f65	0.5519927
133	0xbe875af9	-0.26436594
134	0xbf0cf4fb	-0.5506131
135	0xbf8c6cc9	-1.0970699
136	0x3e8ed950	0.2790017
137	0x3e65df6b	0.22448508
138	0x3e8d2ee0	0.27574825
139	0x3d3d661a	0.04623995
140	0xbf6f326d	-0.9343632
141	0xbda392e3	-0.07987001
142	0xbedf0003	-0.43554696
143	0xbd8c37e6	-0.06846599
144	0x3eca944f	0.39566275
145	0x3d0e2fa6	0.03471341
146	0xc068f710	-3.6400795
147	0xbf94ae29	-1.161565
148	0xbeaf4257	-0.342303
149	0x3e92b741	0.28655437
150	0xbeb99e8e	-0.3625378
151	0x3ef5bfff	0.47998044
152	0xc06291c5	-3.540147
153	0xbffa463e	-1.9552686
154	0xbde9c6c0	-0.11414862
155	0x3e91917e	0.28431314
156	0x3e644c16	0.2229465
157	0xc05ea83b	-3.479018
158	0x3f04aee3	0.51829356
159	0x3ddda028	0.10821563
160	0x3f489674	0.78354573
161	0x3f5fa155	0.8735555
162	0xbf293778	-0.66100264
163	0x3f62bc7b	0.8856885
164	0x3f709943	0.9398386
165	0x3eaa995e	0.33320135
166	0x3f433fad	0.76269037
167	0x3f46555e	0.7747401
168	0x3eab225e	0.33424658
169	0x3f09745e	0.5369319
170	0x3f62efcf	0.8864717
171	0x3e7d538f	0.24738906
172	0x3f8d42ea	1.1036046
173	0xbdf854b4	-0.12125531
174	0x3f101513	0.56282157
175	0x3f293900	0.661026
176	0xbe57801b	-0.21044962
177	0xbf1a9f5b	-0.6039941
178	0x3ee73eb5	0.4516503
179	0x3e635769	0.22201313
180	0x3f09a663	0.5376951
181	0xbec6f745	-0.38860527
182	0x3fbb4508	1.4630442
183	0xbefee293	-0.49782237
184	0x3da69eb9	0.08135743
185	0xbec5e74e	-0.38653034
186	0x3d72af83	0.059249412
187	0xbec6e265	-0.388446
188	0xbf9e35a5	-1.2360121
189	0x3e464be2	0.19364884
190	0x3be8ac3e	0.007100611
191	0x3de6f02b	0.11276277
192	0xbd363c80	-0.04449129
193	0xbe257a60	-0.16159964
194	0x3dc232b0	0.09482324
195	0xbdb7cbc0	-0.08974409
196	0x3e1c9968	0.15292895
197	0xbdfca008	-0.12335211
198	0x3dbb1670	0.09135139
199	0x3dd7b6d0	0.105329156
200	0xbd629ff8	-0.05532834
201	0xbda19d94	-0.07891384
202	0xbe7d05f8	-0.24709308
203	0x3e1c5d9e	0.15270087
204	0xbcf20650	-0.029544026
205	0xbe75adae	-0.23992035
206	0xbe439f62	-0.19103768
207	0xbe5a9578	-0.2134608
208	0xbd8ea490	-0.069649816
209	0xbdb8c894	-0.09022632
210	0xbdb73438	-0.08945507
211	0xbcc1b2a0	-0.023644745
212	0x3e1e842e	0.1548011
213	0xbd861620	-0.06547189
214	0xbe3380ac	-0.17529553
215	0x3c618fe0	0.013767213
216	0xbe362654	-0.17788059
217	0xbe39b8ea	-0.18136945
218	0xbe0f8904	-0.14017111
219	0x3cd70210	0.0262461
220	0x3e7be97a	0.24600783
221	0xbde22ebc	-0.1104407
222	0xbcf98160	-0.030457199
223	0x3c969830	0.018383116
224	0x3f3c7e0c	0.7362983
225	0x3f182df2	0.59445107
226	0xbeb5c2b7	-0.35500118
227	0x3f5e81a8	0.8691659
228	0x3ef843bb	0.48489174
229	0x3ee3bc02	0.44479376
230	0xbe991316	-0.29897374
231	0x3f0b40e4	0.5439589
232	0x3e955fc7	0.29174635
233	0xbce4a508	-0.027910724
234	0x3f68061f	0.9063434
235	0xbcd6855f	-0.026186643
236	0x3f486678	0.78281355
237	0x3e6b2306	0.22962579
238	0x3e48d5b0	0.19612765
239	0x3f0a898f	0.5411615
240	0xbdabd20f	-0.08389675
241	0x3e385f80	0.1800518
242	0xc05b380f	-3.4252965
243	0xbf52fbcd	-0.8241547
244	0xbefc0402	-0.49221808
245	0x3eacb797	0.33733818
246	0xbe9c6fac	-0.3055395
247	0x3f4f1201	0.80886847
248	0xc053d1c1	-3.3096774
249	0xc019101e	-2.3916087
250	0x3e0d2360	0.13783026
251	0x3efd77dc	0.49505508
252	0x3e9c450b	0.30521426
253	0xc068a928	-3.6353245
254	0x3f01e481	0.50739294
255	0x3b886897	0.0041628587

fc.2.bias f4 [16]
0	0x3f6b87b4	0.9200394
1	0xbecaeeed	-0.3963541
2	0xbe0a60f7	-0.13513552
3	0x3de1aa03	0.11018755
4	0x3f1f8107	0.62306255
5	0x3f3498c6	0.70545614
6	0x3f3914a7	0.7229714
7	0xbd011991	-0.031518523
8	0xbe7070f1	-0.23480584
9	0xbe1b2db0	-0.15154147
10	0x3f4afe8a	0.79294646
11	0xbdd80498	-0.10547751
12	0xbe4f05c8	-0.20217049
13	0xbe5ee82a	-0.21768251
14	0x3f5239d8	0.8211951
15	0xbe411cbb	-0.18858616

fc.4.weight f4 [16, 16]
0	0x3dfd2e2f	0.123623244
1	0xbfb34615	-1.4005762
2	0xbfabc11d	-1.3418308
3	0x3f9736c7	1.1813592
4	0x3ed20cd8	0.41025424
5	0x3f2625a5	0.6490119
6	0x3eb12190	0.3459592
7	0xbfe4c7c6	-1.7873466
8	0xba9c2e38	-0.001191563
9	0xc00cc213	-2.1993454
10	0x3f06be8f	0.5263452
11	0xbf9d5cf5	-1.2293993
12	0x3d815d38	0.06316608
13	0x3c43a760	0.011941761
14	0x3eb9a64e	0.36259693
15	0xc021de9c	-2.529212
16	0xbea26bb0	-0.31722784
17	0x3c8d4225	0.017243454
18	0x3dc47d8c	0.09594259
19	0xbdc47d50	-0.09594214
20	0x3d86cdf5	0.06582252
21	0xbce396c4	-0.027781852
22	0xbd2f9199	-0.042863462
23	0x3d69311d	0.056931604
24	0xbda6088f	-0.08107101
25	0xbe4302f2	-0.19044092
26	0xbe259e82	-0.16173747
27	0x3e7ca64c	0.24672812
28	0x3e5aaf0a	0.21355835
29	0x3e2158f4	0.15756589
30	0xbe739bbe	-0.2378988
31	0xbe3fe5ba	-0.18739977
32	0x3eb0324e	0.3441338
33	0xbf6e9e41	-0.93210226
34	0xbfdcd0a0	-1.7251167
35	0xbe0c0afa	-0.13676062
36	0x3e41ed1a	0.18938103
37	0x3ec47254	0.38368475
38	0x3ebc8a3e	0.3682422
39	0xbfb35e5e	-1.4013174
40	0xbc387487	-0.011258251
41	0xbfa631fc	-1.2984004
42	0x3e662595	0.22475274
43	0xbf3e3faa	-0.74315894
44	0xbdda2954	-0.10652414
45	0x3dde0d40	0.10842371
46	0x3e18b672	0.14913347
47	0xbfc8a1f9	-1.567443
48	0x3c183b65	0.0092915045
49	0xbe47fdc9	-0.19530405
50	0x3b66de08	0.0035227556
51	0xbdec2ea0	-0.115323305
52	0xbe42672c	-0.1898467
53	0x3da55eca	0.0807472
54	0xbe1cc756	-0.15310416
55	0x3e6f2a80	0.23356056
56	0x3dd878da	0.105699256
57	0xbdab868b	-0.083752714
58	0xbe596706	-0.21230707
59	0x3e063df6	0.13109574
60	0x3d3870d8	0.04502949
61	0x3e72035c	0.23634094
62	0xbe00a126	-0.12561473
63	0xbda6edbb	-0.08150812
64	0x3f61ab33	0.88151854
65	0xbfca9ae3	-1.5828518
66	0x3e63531b	0.22199671
67	0x3faed31e	1.3658178
68	0xbe78460e	-0.24245474
69	0x3f24dce3	0.64399546
70	0x3f435604	0.76303124
71	0x3eca1ec3	0.39476594
72	0xbed86946	-0.42267817
73	0x3e812f5e	0.2523145
74	0x3f2a69b9	0.6656757
75	0xbf7424ea	-0.95368826
76	0x3c211e00	0.009833813
77	0xbcddea20	-0.027089179
78	0x3e6864a4	0.22694641
79	0x3ebe6c09	0.371918
80	0x3f2d1e42	0.67624295
81	0xbf4629d2	-0.7740756
82	0xc0125ced	-2.2869217
83	0xbf73ef35	-0.95286876
84	0xbf7cac58	-0.98700476
85	0x3f3eed7b	0.74581116
86	0x3ec93e60	0.393054
87	0xc002cdbe	-2.0438075
88	0xbd6d7684	-0.057974353
89	0xc00203ed	-2.0314896
90	0x3f003764	0.5008452
91	0xbf800dd3	-1.0004219
92	0x3cb18090	0.021667749
93	0xbe355bdc	-0.17710823
94	0x3f297726	0.6619743
95	0xc017cae5	-2.3717587
96	0x3e90c8ab	0.28278098
97	0x3e07bfc4	0.13256747
98	0xbec64c27	-0.38729975
99	0xbf9cfc01	-1.2264405
100	0x3e86a86a	0.26300365
101	0x3e8ed8d1	0.27899793
102	0x3eb0e3d9	0.34548834
103	0xbe8419ef	-0.25801036
104	0xbf4baee2	-0.79563725
105	0x3d59209f	0.053009626
106	0xbd1a7470	-0.0377087
107	0xbf92ccf1	-1.1468793
108	0xbe1776c6	-0.14791402
109	0x3e2acd52	0.16679886
110	0xbf0b233e	-0.5435065
111	0x3f255d23	0.6459524
112	0x3d9b63fc	0.0758743
113	0xbe48a090	-0.195925
114	0x3e471f28	0.19445479
115	0xbdf247f0	-0.11830127
116	0xbdc855a8	-0.09781963
117	0xbdcd4c6c	-0.10024342
118	0xbd603770	-0.05474037
119	0x3da42d7c	0.08016488
120	0x3d524438	0.05133459
121	0xbd0e0e68	-0.034681708
122	0xbe330f32	-0.17486265
123	0x3e73fffc	0.23828119
124	0xbe4ef6de	-0.2021136
125	0x3e1804e6	0.14845619
126	0x3e0037b6	0.12521252
127	0x3deeb268	0.11655122
128	0x3e9533e2	0.29141146
129	0x3f91166b	1.1334966
130	0x3f360824	0.7110617
131	0x3e96a133	0.2941986
132	0x3e1891c3	0.14899354
133	0x3eef4efc	0.46739948
134	0xbf0c3995	-0.54775363
135	0x3f637be1	0.888609
136	0xbf1a1d0d	-0.6020058
137	0x3f8c7379	1.097274
138	0xbe122192	-0.14270619
139	0x3ff31018	1.8989286
140	0x3e41561a	0.18880501
141	0x3e12750c	0.14302462
142	0xbeb6c473	-0.35696754
143	0x3ed7058e	0.41996425
144	0x3dff54c2	0.12467338
145	0xbed80d0e	-0.4219746
146	0x3eff4290	0.4985547
147	0x3f942f92	1.1577017
148	0xbf4da22d	-0.80325586
149	0x3e50a421	0.2037511
150	0x3ea792ce	0.3272919
151	0x3f42e4cf	0.76130384
152	0x3f0786fb	0.5294034
153	0x3ed83faa	0.42236072
154	0x3dd8e864	0.105912
155	0xbf4ff514	-0.81233335
156	0xbe6c2600	-0.23061371
157	0xbe6db38c	-0.23213023
158	0x3e6662a5	0.22498567
159	0x3f007860	0.5018368
160	0xbcce9258	-0.025216267
161	0xbd5fc479	-0.05463073
162	0xbd3c637c	-0.045993313
163	0xbddbfef0	-0.10741985
164	0xbe5eab83	-0.21745114
165	0xbe982118	-0.2971275
166	0xbdca1b13	-0.09868445
167	0x3d543e14	0.051817015
168	0xbe8a805d	-0.27051058
169	0xbe763e04	-0.24047095
170	0x3e194d99	0.14971007
171	0xbcaaac5f	-0.020834146
172	0x3de08ec0	0.109647274
173	0xbd334770	-0.0437693
174	0xbaaa54eb	-0.0012995278
175	0x3ddf1f71	0.10894669
176	0x3f14c5a3	0.5811407
177	0xbf3a857e	-0.7285994
178	0x3ff87e48	1.9413538
179	0xbf69bd18	-0.9130416
180	0x3edc5c18	0.43039012
181	0x3eb3e00d	0.35131875
182	0x3e5f26da	0.21792164
183	0x4009a865	2.150903
184	0x3f0827fd	0.5318602
185	0x3fc0556a	1.5026066
186	0x3f171ba7	0.5902657
187	0xbf1d2ad9	-0.61393505
188	0xbe2cc9e0	-0.16873884
189	0x3ddda0fc	0.10821721
190	0x3eb6044a	0.35550147
191	0x3f5997ef	0.8499746
192	0x3f5a2394	0.8521054
193	0xbfd54654	-1.6662087
194	0x3fac5ed3	1.3466438
195	0xbf83f89b	-1.0310243
196	0x3f0418d4	0.51600385
197	0x3dc01803	0.0937958
198	0x3eec6a07	0.46174642
199	0x3fd2b4e4	1.6461453
200	0x3f74995b	0.955465
201	0x3fab61cb	1.3389219
202	0x3f3cbc08	0.7372441
203	0xbf4fff81	-0.81249243
204	0xbe50334e	-0.20332071
205	0xbe2e1d9c	-0.17003483
206	0x3ef2860d	0.47367898
207	0x3f163c8f	0.58686155
208	0xbe2b61c9	-0.16736521
209	0xbd55d11f	-0.052201387
210	0xbd74d97d	-0.059777725
211	0x3e288413	0.16456632
212	0xbe095a84	-0.13413435
213	0xbd7218a7	-0.05910554
214	0xbd14785f	-0.036247607
215	0x3e28dad8	0.16489732
216	0xbc896262	-0.016770545
217	0xbe1786d6	-0.1479753
218	0x3c0cc75f	0.008592456
219	0xbc8fe8c2	-0.017567042
220	0xbe0d51fc	-0.13800806
221	0xbe4221cc	-0.18958205
222	0xbe30f136	-0.17279515
223	0xbe094e78	-0.1340884
224	0x3ee71b1e	0.45137876
225	0xbf1dab43	-0.6158945
226	0x3fed0671	1.8517591
227	0x3fa0583a	1.2526925
228	0xbe2bb309	-0.16767515
229	0xbed716e2	-0.42009646
230	0x3e8cd839	0.27508715
231	0x3fdc1491	1.7193776
232	0x3df26f59	0.11837644
233	0x3f8e012d	1.1094109
234	0x3e57be15	0.21068604
235	0x3e8de453	0.2771326
236	0xbb2c1900	-0.0026260018
237	0xbe53eba6	-0.20695361
238	0x3db5ba8b	0.08873471
239	0x3f8b71c3	1.0894092
240	0x3f4d22d4	0.8013127
241	0xbff56d0c	-1.9173903
242	0x3f24ff09	0.6445165
243	0x3f918fe5	1.1372038
244	0x3ec29a68	0.38008428
245	0x3ec3974a	0.38201362
246	0x3f65df78	0.8979411
247	0x3f14de0c	0.58151317
248	0xbee840a6	-0.45361823
249	0x3f1d15df	0.613615
250	0x3f5b74f5	0.8572534
251	0xbfaf41f2	-1.3692
252	0x3e031d8e	0.12804243
253	0x3d76c4d8	0.06024632
254	0x3f124ff3	0.5715324
255	0x3e4267e8	0.1898495

fc.4.bias f4 [16]
0	0x3f37077c	0.71495795
1	0x3e626fc9	0.22112955
2	0x3e5fd88f	0.21859954
3	0xbd2b532d	-0.04182737
4	0x3f706908	0.93910265
5	0x3f12239a	0.57085574
6	0xbecb7643	-0.39738664
7	0xbe3ec572	-0.18630007
8	0xbd744b9e	-0.059642427
9	0x3d4feb54	0.050761536
10	0xbdfa7507	-0.122293524
11	0x3f690f0a	0.9103857
12	0x3f575d66	0.8412689
13	0x3ca8f244	0.020623334
14	0x3ed9928c	0.4249462
15	0x3f6dfbf9	0.92962605

fc.6.weight f4 [5, 16]
0	0x3e884316	0.26613683
1	0xbdeaf8ae	-0.11473213
2	0x3ed18cab	0.40927634
3	0xbd1d7f28	-0.038451344
4	0x3e977e28	0.29588437
5	0x3f5b5782	0.856804
6	0xbff2693f	-1.8938369
7	0xbe07121c	-0.13190502
8	0x3ecd619f	0.4011354
9	0x3c52126f	0.012821778
10	0xbdf69473	-0.12040033
11	0x3f09fe03	0.53903216
12	0x3ef1ea97	0.4724929
13	0xbe32920e	-0.17438528
14	0xbe371dc2	-0.17882445
15	0x3e94eb76	0.29085892
16	0x3f0f19ba	0.5589863
17	0xbdadccb3	-0.08486309
18	0xbf41337b	-0.7546918
19	0xbdb4cc8c	-0.08828077
20	0x3f165c32	0.5873443
21	0xbeb3b27c	-0.3509711
22	0x3f64464c	0.89169765
23	0x3dbddc3c	0.09270522
24	0x3f4e084a	0.804814
25	0x3f537aaf	0.82609075
26	0xbe89ca1e	-0.26912016
27	0x3f2424cf	0.64118665
28	0x3efea521	0.49735358
29	0xbdfeba86	-0.1243792
30	0x3f57027b	0.8398816
31	0x3f374b2c	0.7159908
32	0x3f3827f2	0.7193595
33	0xbda5882a	-0.08082612
34	0x3eea90dd	0.45813647
35	0x3e68a063	0.22717433
36	0x3edc39e6	0.43012923
37	0x3e74d1e3	0.2390819
38	0xbf2142ad	-0.62992364
39	0x3dffac1c	0.12483999
40	0x4008781a	2.1323304
41	0xbe25be5c	-0.16185898
42	0xbe3d4cc8	-0.18486321
43	0x3ed8eac2	0.42366606
44	0x3e939c52	0.288302
45	0xbe254017	-0.1613773
46	0x3e21a903	0.15787129
47	0x3f0ad5ae	0.542323
48	0x3ebaa10d	0.36450997
49	0xbe9f59ce	-0.31123203
50	0x3f1f4866	0.62219846
51	0xbdc19ade	-0.09453367
52	0x3f382534	0.7193177
53	0x3f54cbe9	0.8312364
54	0x3f49004d	0.78516084
55	0x3d00b4f0	0.031422555
56	0xbf1fb878	-0.6239085
57	0x3eed6f1d	0.46373835
58	0x3cf8e2b5	0.03038154
59	0xbe365c28	-0.17808592
60	0xbd4de61e	-0.050268285
61	0x3e87cdd0	0.2652421
62	0x3e272a55	0.16324742
63	0x3f038b48	0.513844
64	0x3f2fcd2f	0.6867246
65	0x3e54f652	0.20797089
66	0x3f0cd895	0.5501798
67	0xbdfab7ea	-0.1224211
68	0x3ed2a495	0.4114119
69	0x3ef559a2	0.47919947
70	0xbe50a8b6	-0.20376858
71	0xbe13a542	-0.1441851
72	0x3f096a37	0.53677696
73	0x3e4a1735	0.19735415
74	0x3db7e25f	0.08978724
75	0x3e85ab9b	0.26107487
76	0x3e9293f9	0.2862852
77	0xbd90f4bc	-0.070779294
78	0x3f27d620	0.65561104
79	0x3e95fca1	0.29294303

fc.6.bias f4 [5]
0	0x3f067df5	0.52535945
1	0x3f2f4ae0	0.68473625
2	0x3f5d60ee	0.8647603
3	0x3eb485ad	0.35258237
4	0x3ea0f7b2	0.31438977
